checkpoints/dif.pth (torch, 747573 bytes, 16 tensors)

network.0.layer.weight f4 [128, 7]
00000000: f00d 413e e01b 0cbb 3393 59bd e6e0 78be
00000010: 81ac 97bd 1186 3abe e007 333c f18a da3a
00000020: 1675 23bd 75b5 523e 2e37 4fbe 7b63 f4bd
00000030: 6338 923d ba90 903c 1cf7 0c3c 8897 2b3b
00000040: 275e 6e3d 0579 c93e 614c 83bd aa60 eabd
00000050: 71a4 883d 0d5d eabc 8eed 81bc 33ce 8c3d
00000060: 81c6 e1be 2e3d a33e 2994 593e 8158 eabc
00000070: 9c02 0ebd 0095 283e eef6 49be ae2e 273e
00000080: 9ad2 1dbd a7b8 c43d aab6 033c e4e9 10bd
00000090: d475 2fbe 1a78 1c3e 0d9c a5bd d2bd bdbb
000000a0: 71bb ae3d a0eb d33b ded1 2c3d a5e6 103e
000000b0: 34c4 b43d 0697 913d c226 da3c 7183 dbbd
000000c0: 9854 13bc 439a 81b9 4add a9bb e3f4 673a
000000d0: 239b bebe a45d 8abe 4314 68be ce38 443d
000000e0: 4833 6dbd 89be 91bd a0a5 92bb 9330 083d
000000f0: 4a92 f23d 3cf3 b93d 0e4c 293c 4702 593b
00000100: d507 813c 0dc1 d9bc 3998 4e3b ca4e 283e
00000110: a913 673e b1d9 8d3d 97b0 92bb d794 043d
00000120: 545c 313d bbb8 0fbd 6609 693e 361e b8bd
00000130: cca1 97bd 4a25 34bd 0cf3 7c3d f778 d73d
00000140: 5133 383d d565 1c3e 0e86 353e bb94 80bb
00000150: adf3 003d 0405 403c f97b 05be 0f27 fcbd
00000160: a708 3cbb fd94 89bc 4bb0 94bc 4dbd cebc
00000170: 6e6d 703b 1b90 003e 9ff6 203e 9a88 86bd
00000180: e4f7 0dbe aadc abbb a967 073d b9f7 503d
00000190: 9603 4ebe eab8 11be 80e8 18be 2010 8d3d
000001a0: 43d1 923c 11a7 ef3d 3185 cebc e83d a13d
000001b0: 4cde e13c 4b41 d4bd 5553 5d3e 60ab 913d
000001c0: f340 2cbe ef2a 093e 92d0 c73d cb39 103d
000001d0: 3c8e 24bc d3d3 7fbc 5e1d 633c 350e 9cba
000001e0: 091e bfbb 07fd 823c ed55 893e 9949 f7be
000001f0: f34d 013e 888a 92bb bddf 293e 5e74 253e
00000200: 1bf1 2c3e 635b 47bd 93c7 093d 9b7e a4bc
00000210: 7a34 8dbc f1cc c9bc 7997 08be 9547 2dbe
00000220: 7128 1ebd 22a9 a13c 956b f73d f7b5 bc3b
00000230: b066 173e 7534 513e 794b 453d b1f9 0bbe
00000240: f65c 93bd 54d5 8b3c 19ee 61bc a923 a83d
00000250: 3371 503d ea11 813d 82cb 5abe 8bf6 e0bd
00000260: cca9 00be 9cc6 33bb a113 243e fb6a 973b
00000270: c753 29be e1e8 abbd 18b0 923c 4871 6abd
00000280: 7f3f 8abc 98de 243d 656a ddbd 93b3 783d
00000290: f0d8 efbc 77ff 223d 6994 53bc 4788 d43a
000002a0: 4cc3 98bc f1ad d8bd 5e25 2fbe 93f6 603e
000002b0: c15f 75bc 0d72 083d 6fa3 263c cab4 453b
000002c0: 9c8b b438 69d4 f4bd 95e0 a83c e66f be3a
000002d0: 255b ffbc 9975 cf3b 6222 eb3d 482d efbd
000002e0: a015 b33d 190c 9fbe 009a 803d 610d a3bd
000002f0: d149 b93c 7ba5 bfba d131 243e d9f4 ad3d
00000300: aa48 30be ad5b 973d d8f2 9fbd 25c5 65bd
00000310: ca3d c5bd 5bdc 8c3d 67e2 92bc 1b05 1d3c
00000320: f1e4 afbd f110 29bd f440 4bbc e1c6 60be
00000330: 73f7 e1bd 4ad6 ea3d 1c1c 3d3d aef8 e4bd
00000340: d9fc d63d a4e6 6d39 9bfd 8d3d a449 3ebd
00000350: b158 b13d 1484 a2bd a809 3c3e 1f7e 98bc
00000360: 21a0 e2bb 0c8f 3239 be87 0dbb 7be5 2b3d
00000370: c0ae f7bd e9b8 1bbe a0ae d2be 3201 c43b
00000380: 6653 a03d 510f d63d 165e 8bbc f7ab 4cbc
00000390: 4646 d63d bf30 34be 9498 a23c c6ba c0bc
000003a0: cef8 bfbd 44c0 57be 3a7b 2f3e 2887 2bbd
000003b0: 3318 1dbd c7a4 f838 56e3 953a c710 a4bd
000003c0: 6d84 89bd a674 fabd 3f73 3d3d 936f ff3c
000003d0: d944 35bd 0756 353d 10a9 143e 8fac aa3c
000003e0: 05e9 adbd b744 593d 35b7 27bd 8ed1 50bb
000003f0: 9b01 f0b9 2a7d 2bbe 2176 9cbd 4022 553e
0.18852973 -0.002137892 -0.053118896 -0.24304542 -0.074059494 -0.18215205 0.0109271705 0.0016673488
-0.039906584 0.20577033 -0.20235893 -0.11933037 0.07139661 0.017647136 0.008603837 0.002618285
0.05819526 0.39350143 -0.064110525 -0.114442185 0.0667199 -0.028608823 -0.015860345 0.06875267
-0.4409676 0.31882614 0.21247925 -0.028606655 -0.034670457 0.16463089 -0.19723102 0.163264
-0.038530923 0.09605532 0.008039156 -0.035379305 -0.17134792 0.1528019 -0.08086405 -0.0057904506
0.08531845 0.0064672977 0.042192332 0.14150484 0.08826485 0.071088836 0.02662981 -0.1071843
-0.008992337 -0.0002471973 -0.0051838504 0.00088484416 -0.37227735 -0.27024567 -0.22663979 0.047905736
-0.057910234 -0.0711642 -0.0044753104 0.03324945 0.11844309 0.090795964 0.010333074 0.003311293
0.015750805 -0.026581312 0.0031523837 0.16436306 0.22566094 0.06926287 -0.0044766176 0.032368507
0.04330094 -0.035088282 0.22757491 -0.08990137 -0.07403907 -0.043980874 0.061755225 0.10521119
0.044970814 0.15273221 0.17726919 -0.00392398 0.031482387 0.011719946 -0.13035573 -0.12312137
-0.002869168 -0.016794676 -0.01815047 -0.02523675 0.003668632 0.12554972 0.15719078 -0.065690234
-0.13864094 -0.005244811 0.033057842 0.051017497 -0.20118555 -0.14230695 -0.14932442 0.06887841
0.01792205 0.11701787 -0.025209995 0.07873136 0.02757182 -0.10364016 0.2161382 0.07112765
-0.16821651 0.13395284 0.097565785 0.035211366 -0.010043677 -0.015614468 0.013861982 -0.001190609
-0.005832438 0.015989793 0.2682337 -0.48298338 0.12627392 -0.0044720806 0.16589256 0.16157672
0.1688885 -0.048671138 0.033637594 -0.020079901 -0.017236937 -0.024633856 -0.13339032 -0.16921838
-0.038612787 0.01973397 0.120810665 0.0057589966 0.14785266 0.20430167 0.04816768 -0.13669468
-0.07195465 0.017069496 -0.013789677 0.08209927 0.050889205 0.06302245 -0.21366695 -0.10984524
-0.12564772 -0.0027431613 0.16023113 0.0046209074 -0.16535865 -0.083940275 0.017906234 -0.05723694
-0.01687598 0.040251344 -0.10811309 0.06071813 -0.029278249 0.03979441 -0.012913802 0.001621493
-0.018647812 -0.10580052 -0.17104098 0.2196906 -0.014976443 0.033311892 0.010170802 0.0030167573
8.609073e-05 -0.119545765 0.020614902 0.0014529198 -0.03117139 0.0063311574 0.114811674 -0.116785586
0.08744359 -0.31063917 0.06279373 -0.07961536 0.022618206 -0.001462146 0.16034628 0.084939666
-0.17215219 0.07390533 -0.07809991 -0.056096215 -0.09630926 0.06877967 -0.017930223 0.009583737
-0.08588589 -0.041275922 -0.012405623 -0.21950866 -0.11033525 0.11466654 0.046169385 -0.111802444
0.104974456 0.00022688002 0.06933137 -0.046456948 0.08659495 -0.07935348 0.18363059 -0.018614827
-0.0069160615 0.00017028692 -0.0021595801 0.041966897 -0.12093878 -0.15207256 -0.41148853 0.005981588
0.07828407 0.1045214 -0.017012637 -0.0124921715 0.10462622 -0.1759672 0.019848146 -0.02352656
-0.093736276 -0.21069437 0.17136851 -0.041876942 -0.038353156 0.00011856254 0.0011435549 -0.080110125
-0.06714711 -0.1222928 0.046252485 0.031181132 -0.04425511 0.044271495 0.14517617 0.020834235
-0.084917106 0.053044047 -0.040946204 -0.0031863186 -0.00045777563 -0.16746965 -0.07639719 0.20813847

network.0.layer.bias f4 [128]
00000000: 5898 a8be 4f3a dabc 53a2 c13d b22e c43d
00000010: 1f35 9d3e a5fd b93e 2ace b23e cfb0 813e
00000020: a577 813e a74b 02bd 68a9 94be 6b53 02be
00000030: 5e52 55bd 0772 5abe c835 2c3e ebf8 103e
00000040: 0f87 6d3d 8187 ac3d bffc a63e 0989 083e
00000050: a8ae a1be ac80 88be 1f32 193e 5923 2c3d
00000060: 81f1 363e a764 bbbe 523d b2be f061 6e3e
00000070: d869 693e 3311 a4be 9965 0d3e 2ce7 95be
00000080: e3df 8a3e 87e8 013e fc3c b53e 4095 b6be
00000090: d98d b7be 8a29 883e 2c3e b03e cdc0 5f3e
000000a0: a6ad 6f3e 0d7c a3be 283f 7c3e 0560 a8be
000000b0: f348 bb3d 7fd1 7dbe 9a49 03be 4b08 8c3d
000000c0: 38ed 0dbe d8c3 6cbd cc99 b4be 6196 b5be
000000d0: a68d 0a3e 149a 38be 6125 70be 9a44 18be
000000e0: e090 a3be fbe7 99be 6f65 4f3e 332b 3f3e
000000f0: ab5f 7a3d d86c 4dbe 56da f43d 332b 073c
00000100: 96e9 80be a41a a73d 16f2 ab3e 3ab9 c6be
00000110: 5d66 bfbe d096 763d 953c 8c3e c5fd 55be
00000120: b95b 8a3d e55c 833e b73e 023e 2ae5 b63d
00000130: 4f33 be3e f4ff 623e ac5d 40be b6c0 183d
00000140: 5eb3 373e 7a83 a83e 9a1e bfbe 8d44 553e
00000150: 1547 d4bd 4cff b6be 8322 983d 4554 38be
00000160: b58f 483d f543 78be 1042 8bbe 8ae1 63bc
00000170: b147 e9bd 5a0b 5d3e 3ea0 fc3c 0174 8f3e
00000180: c52f 9c3d 7263 d8bd 52c0 7e3e 4e1f e83c
00000190: ab42 be3d cbe2 f0bd 67fb 3f3b 59d5 b8bd
000001a0: 4294 3cbd 5333 90be 3dec 8336 d4c3 a0be
000001b0: 88e0 90bd 0437 4e3e cc5f 81be b53f 69be
000001c0: 2b97 c0bd d24c bfbd 09b1 693d ae69 743d
000001d0: e535 3a3e 692d 7ebe 8591 d8bc eb1f 4a3e
000001e0: ea5a a83e 017d b3bc ea5e 46be bc15 d13d
000001f0: 4edc 493e 4efd 57be a5c9 61be 6cc9 2d3e
-0.3292873 -0.026639132 0.09454789 0.09579219 0.3070459 0.36326328 0.34922916 0.25330207
0.25286594 -0.03181043 -0.29035497 -0.12727134 -0.052080505 -0.2133256 0.16817391 0.14157455
0.05799013 0.08424283 0.32614705 0.13333525 -0.31578565 -0.2666067 0.14960526 0.042025898
0.17865564 -0.3660023 -0.3481241 0.23279548 0.22794282 -0.32044372 0.13808288 -0.29277933
0.27123937 0.12686358 0.3539809 -0.35660744 -0.3585041 0.26594192 0.34422433 0.21850891
0.23406085 -0.3193058 0.24633467 -0.32885757 0.09144773 -0.24786948 -0.12821046 0.06837519
-0.13860023 -0.05780396 -0.35273588 -0.35466293 0.13530597 -0.18027526 -0.23451759 -0.1486992
-0.31946468 -0.300598 0.20253538 0.18668823 0.061126392 -0.20061052 0.11955707 0.008250046
-0.25178212 0.08159378 0.33583134 -0.38813192 -0.37382784 0.06020242 0.2738997 -0.20897587
0.06755776 0.2565681 0.12719236 0.08930428 0.3714852 0.22167951 -0.18785733 0.03729316
0.17939517 0.3291281 -0.37328035 0.20826931 -0.1036512 -0.3574165 0.074284576 -0.18000896
0.048965175 -0.24244674 -0.2719884 -0.013908753 -0.11390627 0.21586362 0.030838128 0.2801819
0.07626299 -0.10565843 0.24878052 0.02833524 0.0929006 -0.11762007 0.0029294135 -0.09025068
-0.046039827 -0.28164157 3.931606e-06 -0.31399405 -0.07074076 0.20138174 -0.252684 -0.22778209
-0.09403833 -0.09340824 0.0570536 0.059671097 0.18184622 -0.2482201 -0.026436577 0.19738738
0.32881862 -0.021910192 -0.19372144 0.10209224 0.19712946 -0.21092722 -0.22049578 0.16971368

network.1.layer.weight f4 [128, 128]
00000000: 4248 643a a0e6 fd3b da22 813a 858d 843b
00000010: 207d c2ba 342d b8ba 166f 5939 d6c4 93ba
00000020: b201 963a fe93 6c3b 129d 563a a5e4 c53a
00000030: efb0 6e3a b1c4 7a3b bf40 3b3b 2f7b 863a
00000040: 0052 393a 0ac5 a43b bb39 19ba 9dab 47bb
00000050: 8202 3d3a ac05 4dbb fa5e 8938 f25d bcbb
00000060: 5436 bab8 8036 0e39 d02e 08bb d899 1839
00000070: 893f 7539 dccd d5ba 7d6b 7e3a 8b91 18bb
00000080: 1150 203b fa4a e83b 0d8d d538 f011 83b9
00000090: 498c 613b 47f6 b039 65a3 753a 1461 523a
000000a0: ced5 993a deaf 473b a595 bcb7 a183 40b9
000000b0: 3a92 e2b9 d831 16ba 2d5c 9cb9 dd12 8e38
000000c0: eddb af3a 7b3a 56b9 cfb3 15ba 28a0 04ba
000000d0: f628 0f3b 73bb 173c d846 273b 8c3d cd3a
000000e0: 4da8 e93a 43ed b9bb 1a1f 8b3b 032e 49ba
000000f0: db3e 5cbb 5f8b 38bb 1b95 e7ba 2d0f b23b
00000100: 9acc db3a 7e02 8b3b 77f9 20bb 7eba 5dba
00000110: c028 29ba b5b6 26bb 312b 1dba 543d cf39
00000120: b6da 453b 66ef 103b 6220 b2bb e40a 9d3b
00000130: cfe1 b2bb 4231 8f3a 49b7 9ab9 1f32 713a
00000140: c5d1 06b9 7c15 e8b9 cce0 30ba f576 713b
00000150: fa4c 97ba a9f1 2639 5058 96bb debb 653b
00000160: c4df be37 d598 be3b 2f18 6d3a e7f3 693a
00000170: 14a3 633a bc3a 853b 1700 9fbb 8a13 1abb
00000180: 5fbb 79ba f9f2 8939 110d 173b c5a8 67bc
00000190: 5102 013b f2e6 99bb 23b3 b7bb 5fdb 183a
000001a0: 0fca c0b8 9dac 373a eec1 22ba 171f f03a
000001b0: f664 27bb 4fbe 893a f5a2 7639 7375 b23b
000001c0: 44ff 2bbb 7adc 9d3a 74a5 163b da14 bf3a
000001d0: ba8a 633a 32b7 ceba a1a4 37bb 31c3 693b
000001e0: ac4f b8ba 49d3 2abb 96ed a239 f792 7fb7
000001f0: 52b5 34bb fa83 443b 6cbb 423b 8e28 99ba
00000200: 3208 cb35 b06e 16bc ece4 26bb 79ae 0a3a
00000210: 6973 44ba 0092 06b9 195c e6ba 8687 4cbc
00000220: 4d03 203b eac0 99bd 5a63 183b b4e2 63bb
00000230: d8f8 42ba 1359 2ab9 df89 b23b 786d 683b
00000240: 148e 4cbb 9c9a d73a 4a34 b7b9 0daf 3dbb
00000250: 2a34 383b d9b7 2439 d4a7 a93a 8c12 b4ba
00000260: 0d03 00bb 12dd 3b3a 6940 ddb9 b924 f3b9
00000270: a4c1 7e3a dcfb 68ba cc70 173b e570 ef3c
00000280: 496c 2fbb 5a3d 87bb 2686 dfb9 ba35 593b
00000290: 1af1 ad3a d528 3c3c ba76 44bb 0446 2bba
000002a0: 215a f3b9 9833 96bc d7fe d8ba aaf3 973a
000002b0: 711a e9b9 23e2 283b bc65 9eba 50c6 5bbb
000002c0: 7713 963b 97ee 9f39 22d5 9d3a bd99 a1ba
000002d0: fb4a caba 41fd 7dbc eb0e 1abb 945f b03a
000002e0: 1824 183b 1ac4 d33a 0ec4 00bb 6e79 7b39
000002f0: d031 633d 1c9a a1ba 56f1 a0ba d387 22bb
00000300: 2ae7 75bb e1ff b239 9d19 c13a a016 0f3c
00000310: 979a 823a 680c 04bb 60ac 973a 9da6 19bb
00000320: 263d 063b 8b19 a0b8 6800 033d 5e20 243a
00000330: 7feb c5b9 3a6d 3a38 6274 8ebb 1ae2 663a
00000340: 9be6 d3b9 02a7 213a bbe8 a739 f8e5 56ba
00000350: a16d 8f3a ed54 053b a41c 61bb b4dd a2bb
00000360: fdb2 a43a 19f7 0ebb 09e2 13ba 1a40 8fbb
00000370: dfea d93a 7398 dc3a baf6 16bc 5f31 10bb
00000380: 1cfb e83b 5101 43ba a657 b6bb 4e95 c1ba
00000390: 3314 34bc 4df5 15bb b16c 653a 2e0a d63a
000003a0: 09af 5fbb 783e ac3b e10d 483a 1a8d 1b3a
000003b0: 2bae 95ba c35e 4eba 6130 103b a146 f439
000003c0: d8e5 c73c 2363 dcbb 307f 993a dfb0 51bb
000003d0: 485c e7b9 09d0 0f3a a873 edbb 42cd 653b
000003e0: 32f3 b1b9 9b6c 783b f22d 053b a439 d93b
000003f0: f194 cb39 a3e7 57bc 52d6 f6ba dbf6 9a39
0.0008708277 0.00774844 0.0009852306 0.0040451908 -0.0014838316 -0.0014051558 0.00020736115 -0.0011273872
0.0011444597 0.0036098952 0.00081868574 0.0015098049 0.00091053447 0.003826421 0.0028572527 0.00102601
0.0007069409 0.0050283717 -0.00058450893 -0.003046728 0.00072101515 -0.0031283898 6.55036e-05 -0.005748504
-8.8792905e-05 0.00013562478 -0.0020779856 0.00014553161 0.0002338869 -0.0016311961 0.0009705348 -0.002328011
0.0024461786 0.007089016 0.00010182904 -0.00024999632 0.0034415892 0.00033752827 0.0009370356 0.000802533
0.0011736692 0.0030469815 -2.248103e-05 -0.00018359582 -0.00043215026 -0.0005729473 -0.00029823315 6.774601e-05
0.0013416983 -0.00020430416 -0.00057106925 -0.00050592655 0.0021844483 0.009261 0.0025524404 0.0015658601
0.0017826647 -0.0056740358 0.004245651 -0.0007674398 -0.00336068 -0.0028159244 -0.0017668338 0.005433938
0.001676935 0.0042422405 -0.0024562755 -0.00084582705 -0.00064529106 -0.0025438492 -0.0005995511 0.0003952781
0.0030190176 0.002211535 -0.0054359892 0.004792558 -0.0054590474 0.0010924714 -0.00029509727 0.0009200889
-0.00012857381 -0.00044266495 -0.00067473645 0.0036844586 -0.0011543327 0.00015921019 -0.0045881644 0.0035054605
2.2753964e-05 0.005816559 0.0009044436 0.0008924589 0.00086836633 0.0040658396 -0.0048523056 -0.0023510181
-0.00095265167 0.00026311705 0.002304856 -0.014139359 0.0019685219 -0.0046967203 -0.0056060716 0.00058310287
-9.19291e-05 0.00070066174 -0.00062087073 0.0018319812 -0.0025542355 0.0010508987 0.00023521094 0.00544613
-0.002624468 0.0012043857 0.0022986801 0.0014578358 0.00086800347 -0.0015771149 -0.002802171 0.0035669322
-0.001406183 -0.0026065877 0.00031076063 -1.5233402e-05 -0.0027573896 0.002998589 0.0029713763 -0.001168506
1.5127064e-06 -0.009181663 -0.0025466038 0.00052902807 -0.0007494004 -0.00012833625 -0.0017575055 -0.012483483
0.002441603 -0.075074986 0.0023252578 -0.0034772577 -0.00074375933 -0.00016245646 0.0054485644 0.003546564
-0.0031212615 0.0016449275 -0.00034943438 -0.002894345 0.0028107264 0.00015708747 0.0012943693 -0.0013738438
-0.0019533068 0.0007166426 -0.00042200394 -0.00046375932 0.0009718186 -0.00088876276 0.0023108004 0.029228637
-0.0026767424 -0.0041271867 -0.00042633823 0.0033143596 0.0013270706 0.0114843445 -0.0029977993 -0.00065335655
-0.00046415723 -0.018335149 -0.001655544 0.0011593003 -0.00044460924 0.0025769554 -0.0012084763 -0.0033534952
0.004579957 0.00030504607 0.0012041668 -0.0012329143 -0.0015433723 -0.015502275 -0.0023507427 0.0013456219
0.0023214873 0.0016156465 -0.0019648108 0.00023982461 0.055467427 -0.0012329253 -0.0012278955 -0.0024800196
-0.0037521818 0.0003414145 0.0014732365 0.008733422 0.0009964284 -0.0020148996 0.0011571757 -0.0023445257
0.0020483225 -7.634152e-05 0.03198281 0.00062609266 -0.00037750226 4.444758e-05 -0.00434737 0.00088074955
-0.0004041687 0.00061665487 0.0003202612 -0.000819772 0.0010942706 0.002034481 -0.0034349347 -0.0049702767
0.001256555 -0.0021814762 -0.0005641287 -0.004371655 0.0016625783 0.0016830101 -0.009214098 -0.0022002084
0.0071100127 -0.0007438856 -0.0055646477 -0.0014769228 -0.010991144 -0.0022881806 0.0008751853 0.0016329938
-0.0034131429 0.0052564703 0.00076314626 0.00059338065 -0.0011419704 -0.0007872397 0.0022001492 0.0004659193
0.02440159 -0.006725685 0.0011710878 -0.0031996293 -0.00044128508 0.0005486017 -0.0072464533 0.003506497
-0.00033941265 0.003790653 0.0020321575 0.0066291858 0.00038830147 -0.013177785 -0.0018832183 0.0002955709

network.1.layer.bias f4 [128]
00000000: 8f91 b83b 7283 97bd e631 5c3a d709 203c
00000010: 7057 8dbc 07a0 023d 6fa2 113d 4288 593d
00000020: 0db3 aebd ee7c 22bc f077 213d a9e9 5b3d
00000030: 0079 87bd 8700 083a eee4 75bb c314 34bc
00000040: ffec ea3c bed1 1e3d 598c 99bd ea0e b13b
00000050: 256e 67bd c34f 503d 5edb bfbb 7c6a ec3b
00000060: bebc 99bb 689f ab3d 4da6 94bd ade8 463d
00000070: 72a5 a83d d8a2 0abd d924 0a3c 05f9 13bd
00000080: 4059 1dbd 267a 4ebd 2c31 d23c 7423 623d
00000090: 9a77 93bb 1de2 0dbc 44f2 79bd 0325 293d
000000a0: 9ceb 223d f970 04bc 2747 50bd 34a1 c83c
000000b0: b474 89bd 0f56 2a3d 7e2b 54bd 0aa3 df3c
000000c0: f2ef 5dbd 0032 a03b 5cd5 933d be66 333d
000000d0: 4671 7ebd 2936 31bc bc4d b53c b2c9 7fbc
000000e0: ea6f e5bb 3e93 813d 42ab 6cbd 2ed7 8ebd
000000f0: 73dc 9dbd 003a 883a 8dc9 85bc 387d a33c
00000100: 2566 6fbd 19f1 f3bc c2b3 debc 09f1 bc3c
00000110: de7a 973d 40c2 86bd 30aa 2a3d be81 293d
00000120: 07fb 92bd 2c2d 04bd bb9e 763d d07b 00bd
00000130: d574 5e3d d5e1 523c 6aa8 4abd 1b15 393d
00000140: ef3f e5b9 10c4 29bd ae5a e83b e026 1dbd
00000150: f791 28bd fe72 a5bc 7c88 9ebd 0a8a aabd
00000160: b434 8fbc ddce 5fbd 47c6 123d 13c3 7c3d
00000170: 2ba0 26bc bbbb a5bd d7a8 92bd 4424 183d
00000180: d4db a53a c655 a6bd 9461 ffbc 8283 143d
00000190: 5bcc 9d3b a355 3b3d 3178 893d 4e73 cebc
000001a0: b109 59bc 36f5 9dbd 201c af3d 446d a1bc
000001b0: d6aa 4fbc aa02 50bb 81fa 3bbd c7f2 193c
000001c0: 002a 683d 3cae e53c 1510 853c 474b 28bd
000001d0: 4197 083d 5ba3 c23d 6df3 68bd 015a 37bd
000001e0: 57c4 c13d 43f9 2e3d 7df4 1b3d 090f a53d
000001f0: 3623 8f3b 6589 9b3c 0430 1a3d 17c2 683d
0.0056325863 -0.07398118 0.00083997694 0.009767971 -0.017253608 0.031890895 0.0355553 0.05310846
-0.08530245 -0.009917481 0.039421022 0.053689633 -0.06614876 0.0005188067 -0.0037520486 -0.010991278
0.028677462 0.038774244 -0.07497472 0.005403389 -0.056501526 0.050857317 -0.005855008 0.0072148424
-0.0046916893 0.08380014 -0.07258282 0.04856174 0.08234681 -0.033846706 0.008431637 -0.036126155
-0.038415194 -0.05040946 0.025658213 0.055209592 -0.0045003416 -0.008659867 -0.061022058 0.041295063
0.039775476 -0.008083575 -0.050849106 0.02449093 -0.067117125 0.041585978 -0.05179929 0.027299423
-0.054183908 0.004888773 0.072184294 0.043799154 -0.062119745 -0.010816135 0.022131793 -0.015612053
-0.0070018666 0.06326912 -0.05778051 -0.06974636 -0.07708063 0.0010393262 -0.016331458 0.01995717
-0.058447022 -0.02977805 -0.027185325 0.023064153 0.07396482 -0.06580019 0.04166621 0.041383497
-0.07176786 -0.03226964 0.06020997 -0.031368077 0.05431064 0.012871225 -0.04947702 0.045186143
-0.00043725918 -0.041446745 0.007090888 -0.038367152 -0.041154828 -0.020196434 -0.07740876 -0.0832711
-0.017481185 -0.05464064 0.035833623 0.061709475 -0.010170023 -0.08092447 -0.0716111 0.03714396
0.0012654015 -0.08121829 -0.031174459 0.036258228 0.004815621 0.045735966 0.06712378 -0.025201466
-0.0132469395 -0.07712786 0.08550286 -0.019705422 -0.012675008 -0.003173987 -0.045893196 0.009396262
0.05668068 0.028037183 0.01624302 -0.041087415 0.033347372 0.09503814 -0.056872774 -0.04476357
0.09461277 0.042718183 0.03807496 0.08059508 0.004368211 0.018986413 0.037643448 0.056825723

network.2.layer.weight f4 [128, 128]
00000000: 03b0 dd39 da6c c1ba 7a06 323b 8dba 013b
00000010: dc96 a6ba 8f30 1d3b 26eb 183a 3613 9bba
00000020: 1710 8eb9 6e98 9eb8 a880 1abb 2b00 263b
00000030: 25cd 71bb a325 133a 128b b13a f40b 38bb
00000040: 9b9a a239 007f 7e3a 7565 a53a 8dcf d5b9
00000050: 658e f8b9 24af b4ba b651 f839 364c 17bb
00000060: 5663 833a 3de7 473a 08d1 79bb 81df dcba
00000070: e795 eb3a a2ab 98bb 2e7f 77ba 91b6 913a
00000080: 96f4 743b 1aa2 22ba 8d16 33ba a0eb 9b3b
00000090: c4c8 8e3a 836a acba f28e 92bb 16c7 a1b9
000000a0: 3e7d e63a 4419 b5ba 3e51 41ba 63cd 06b9
000000b0: 8f75 4fbb f8d2 26bb fb3b c6ba 5c5c 15bb
000000c0: 7761 153a a1b5 f339 78fc db3a 29b4 55ba
000000d0: f967 adba 1aed 69b9 4db5 b73a 678a 8dba
000000e0: 4891 40ba 7d58 24ba d232 6fba f131 be3a
000000f0: d68a 343b c02a 5eba eb65 ae39 afff adba
00000100: 6d23 37bb 7857 8dba 6670 343b 5234 b739
00000110: 993b c4bb a14d efba 7330 7ab9 7965 153b
00000120: 3053 cb3a 3cb0 353a e716 efba f0b2 c13a
00000130: d8f5 3abb 9d64 3e3a cfe2 103a da1a ad3a
00000140: 20e3 69ba 1859 e338 2384 7839 8232 f33a
00000150: 754b cdb9 9159 3a3a cf66 2b3a c607 f2bb
00000160: 1595 32ba 8292 7b3b 56b0 b23a 3560 92bb
00000170: a7c0 0cbc df93 a43a 5707 a33a ded8 c2ba
00000180: a7eb 31bb f1d8 a2bb b096 c8ba 3b11 76ba
00000190: 35e4 cdba dd7d 1e3b 5e17 38ba 6882 313a
000001a0: edc1 9839 fbd9 2f3b eef4 fa39 0b6e b7ba
000001b0: 2773 5fb9 6075 9c3a b497 243a 23c7 583a
000001c0: c87f 29bb 912e cc3a 7a54 0c3b 35c1 903a
000001d0: da12 c139 55ae 0bbb a938 a1bb 4d62 7fb9
000001e0: 7b19 ad3b 491a 90b9 7f74 18bb 69cc 92ba
000001f0: 35c6 213b b8f9 923b ab60 69b7 6a50 e73a
00000200: ec03 24bb 2eb7 e73b 861f 91bb b28a 753c
00000210: 1e8d 2abc dd86 cdbb 0497 9a3b 179b b8bb
00000220: b89c 2a3c 1197 a0bc 5082 85bb cef7 193c
00000230: 7794 bd3b 1924 1bbc 9a5d 163c d6c6 01bc
00000240: 9fa5 19b7 6f32 7e3a c453 c2ba 85d9 413b
00000250: a74d a63b 7fce dc39 aaf4 d33b 05e1 1dbc
00000260: b861 71bc 9db9 06bc d29f 2c3c 341d 183b
00000270: 0a62 f7bb 4ab8 a0bc 79c7 91bb 113d 6fbb
00000280: 8b5f 7ebc e50a f5b9 d4ae 2f3c f0e9 163c
00000290: 3732 6dbc 5c68 b93b 0e23 2bbb f1e0 b53b
000002a0: 7060 ab3b 49dc 8d3c 9dd0 fd3a 8edd 943b
000002b0: 337d 19bb 91ef 0cbc 218e cfba c303 cb3b
000002c0: d7e9 643b 1582 16bc 5ec9 963b eaf0 b8bb
000002d0: 7e88 5f3c 85a9 e03b e0ad 1bbc 0de2 d7bb
000002e0: 2c95 51bc dff4 8e3b 8725 18bc 0889 b4bc
000002f0: 5d18 85bb a4c9 dcbb d393 d6bc ebc9 82bc
00000300: 4665 4b3c c325 3cbb efb9 b73c 629e 3c3a
00000310: ece4 bdb9 e3bf d33c fa09 bebb c71e ee3b
00000320: b36f 85bc 5a2d 49bb 31a5 303b beb1 54bb
00000330: 68ac ad3a 6562 a13b 1c45 7fbc bfad 093c
00000340: 1417 f4bb 77f6 8c3c 2327 37bc a945 20bc
00000350: 8431 813a 2c45 9039 19f1 93bc e3e3 4fba
00000360: 0ffc c7bb 1749 99bc daee 85bb 5acf e73b
00000370: c03e c6ba d68c 163c 6323 fdbb bcc8 183a
00000380: 4e03 dcbb 44f8 3d3b 60b2 89bc cf4a 303c
00000390: 70ec cabb a0f2 8dbb 5bc4 3f3c f97f b7bb
000003a0: 4f41 8e3b eb8b 06bc 6011 1b3c fe9b 1abb
000003b0: 902e 4a39 c922 553c 9ad5 61bc 3d8a bbba
000003c0: d1da 9dbc abf9 c93a 719d 023c 6ae2 f33b
000003d0: 70d7 cd3a f2b0 013c 151c 503b 2e53 5e3b
000003e0: 8749 c1bb bba0 09bc 09d6 373c 1d4f 9bbb
000003f0: d763 123c 0882 763a 8b71 caba e1f1 97bb
0.00042283544 -0.0014757172 0.0027164505 0.001979503 -0.0012709755 0.0023985242 0.00058333797 -0.0011831287
-0.00027096338 -7.562419e-05 -0.002357522 0.002532969 -0.0036895957 0.0005613213 0.0013545475 -0.0028083296
0.00031014238 0.00097082555 0.0012618738 -0.00040781163 -0.00047408338 -0.0013785106 0.00047363125 -0.0023086197
0.0010024111 0.0007625705 -0.0038118977 -0.0016851277 0.0017973752 -0.004659132 -0.00094412535 0.0011117031
0.003737723 -0.00062039646 -0.00068316684 0.0047583133 0.0010893573 -0.0013154302 -0.004472607 -0.00030856644
0.0017584933 -0.0013816734 -0.0007374472 -0.00012855748 -0.0031655764 -0.0025455337 -0.0015124077 -0.0022790646
0.00056984223 0.00046483896 0.0016783616 -0.0008152151 -0.0013229839 -0.00022308939 0.0014015824 -0.0010798693
-0.00073458673 -0.00062692893 -0.0009124699 0.0014510733 0.0027548573 -0.0008474998 0.000332638 -0.0013275052
-0.00279447 -0.0010783514 0.0027532815 0.00034943462 -0.00598855 -0.0018257388 -0.00023859907 0.0022796078
0.0015512463 0.0006930863 -0.0018241078 0.0014778059 -0.0028527882 0.00072629174 0.0005526961 0.0013206855
-0.0008922089 0.000108407985 0.00023700348 0.0018554481 -0.00039156867 0.00071086833 0.0006538452 -0.0073861806
-0.0006812376 0.0038386886 0.0013632874 -0.004467035 -0.008590854 0.0012556276 0.00124381 -0.0014865657
-0.0027148516 -0.004969709 -0.0015303697 -0.0009386723 -0.001570827 0.0024183907 -0.0007022525 0.0006771446
0.00029136185 0.0026832807 0.00047866203 -0.0013994587 -0.00021309835 0.0011936836 0.0006278709 0.000826942
-0.0025863517 0.0015577843 0.0021412657 0.0011043908 0.00036825874 -0.0021313627 -0.0049200845 -0.00024355315
0.0052825785 -0.00027485404 -0.0023262796 -0.0011199835 0.002468479 0.004485335 -1.39103895e-05 0.0017647867
-0.0025026752 0.0070713973 -0.0044288067 0.014986681 -0.0104096215 -0.0062721805 0.0047177095 -0.0056337225
0.010413341 -0.019603284 -0.0040743724 0.00939746 0.0057855207 -0.009469056 0.00917759 -0.007920941
-9.158072e-06 0.0009696846 -0.001482599 0.0029579115 0.005075175 0.00042115522 0.006468375 -0.009636168
-0.014732771 -0.008222965 0.010536151 0.0023210766 -0.007549529 -0.019619126 -0.004448828 -0.0036504904
-0.015525709 -0.0004673816 0.010722835 0.0092110485 -0.014477304 0.0056581926 -0.0026113424 0.0055504967
0.005230002 0.017316954 0.001936454 0.004543013 -0.0023420572 -0.008602039 -0.0015835204 0.006195517
0.0034929418 -0.009186287 0.0046016416 -0.0056439536 0.013643382 0.006856146 -0.009501904 -0.0065882266
-0.012791913 0.004362687 -0.009286291 -0.022037998 -0.004061742 -0.0067379046 -0.026193535 -0.015965423
0.012414282 -0.0028709031 0.022427527 0.0007195232 -0.0003621945 0.025848335 -0.005799529 0.0072668525
-0.016288614 -0.0030697198 0.002695393 -0.0032454575 0.0013250234 0.0049250596 -0.015580442 0.008403241
-0.00744904 0.017207367 -0.0111787645 -0.009782233 0.0009856676 0.00027517357 -0.0180593 -0.0007930381
-0.006103046 -0.01871161 -0.004087311 0.007074279 -0.0015124902 0.009188851 -0.0077251657 0.00058282516
-0.006714261 0.002898709 -0.016808689 0.010760023 -0.0061927363 -0.0043319017 0.01170453 -0.0055999723
0.0043412815 -0.00821207 0.009464592 -0.0023591514 0.00019281567 0.013008782 -0.013783837 -0.0014308166
-0.019269379 0.001540949 0.007972107 0.007442762 0.0015704464 0.007915722 0.003175502 0.003392409
-0.0058986577 -0.008400138 0.011220464 -0.0047396556 0.0089349365 0.00094035314 -0.0015445215 -0.0046369885

network.2.layer.bias f4 [128]
00000000: 9daa 753c 8c2e 6b3d 5e1a ca3c 5703 6f3d
00000010: 3922 573c cb7a 4cbd b553 e73c 7b85 143d
00000020: 5b31 51bd bb00 a53b 3b56 533d a3e2 53bd
00000030: 1c20 443d f3fb 4c3d b009 2dbd 5767 463d
00000040: 7e54 623d 2fcc ed3c 248e f5bc b464 1cbd
00000050: afce 2f3d 330f 47bd 371b 9a3c aa8c 59bd
00000060: 8025 af3c c6f2 243d a5c7 303d eaa6 633d
00000070: 7f75 87bd 29ab af3d 8a74 5c3d c457 2cbd
00000080: fb37 813d fdb1 8fbd 8b69 773d aaaf 023d
00000090: 50ce 28bd 74d4 103d 4509 07bd ab9d 8ebd
000000a0: 223f e23c de8d 1bbd 9377 34bd 9c25 413d
000000b0: 4f39 76bc 1686 223d f9f2 cbbc c9b5 61bd
000000c0: 4a80 123d 7517 133d b9d1 04bd 66f4 013c
000000d0: f3d4 2f3d b44e 1bbd c2f7 1bbd d7ea 593d
000000e0: d992 723d 5432 b13c 1f37 483d 0eb2 61bd
000000f0: 14eb 253c ca61 833d 0a4d 93bd 7633 8abc
00000100: 4dbf 23bd f95d 2fbd 643f 9f3c d99d 53bd
00000110: b3e1 be3d b858 d7bc 7aaf 76bd 325e 3abd
00000120: 067d 39bd 8677 613d c260 8f3d 722f 683d
00000130: bccf 973b 557a 973b 2730 17bd 4177 843d
00000140: 0c4d 483d 7034 0a3d 5c57 2d3d 019a b03d
00000150: 44e5 86bd 8fa4 f1bc 1b53 d5bc c877 1abd
00000160: 25a5 363c faec 673d c222 233d 086d ddbc
00000170: 27ea 89bd 85fc 483b 5ce9 6a3d 6ca9 773d
00000180: 7754 37bd baf1 263d 264e 6abd 051a 81bc
00000190: dbf6 81bd 6b6b 2cbd 4bf9 2cbd c3bd 84bd
000001a0: bb3b 09bd 5431 623d c21d ebbc 148f be3c
000001b0: 7bfa 82bd 2d84 c23c 08d8 443d 5c61 df3c
000001c0: b37f 2a3d 3beb b9bc 1704 dc3c b0f4 adbc
000001d0: 4d85 843d 7531 18bd c6bb 9d3c 4d19 fc3c
000001e0: 3b98 873c e1e2 933c 1ca2 833d 6f21 ef3c
000001f0: 2f04 253d 622e 193d 3245 1e3d de8d babc
0.014994291 0.057417437 0.024670776 0.058352794 0.013130718 -0.049921792 0.028238157 0.03626011
-0.05107246 0.0050354875 0.051595908 -0.05172981 0.047882184 0.050044965 -0.042245567 0.048438396
0.05525636 0.029028026 -0.029975004 -0.038181975 0.04292172 -0.04859848 0.018811805 -0.053112663
0.021380186 0.04027059 0.043159146 0.055579104 -0.066142075 0.08577568 0.053822078 -0.042075887
0.063095056 -0.070163704 0.060403388 0.031905808 -0.04121238 0.03535886 -0.032967824 -0.069636665
0.027617995 -0.037977092 -0.044059347 0.047155008 -0.015028312 0.039678656 -0.024896132 -0.055105004
0.035766877 0.035911042 -0.03242657 0.007931804 0.042927694 -0.037916854 -0.038078077 0.053202476
0.059222076 0.021630444 0.048880693 -0.055101447 0.010126848 0.06415136 -0.071924284 -0.016870242
-0.03997736 -0.04281423 0.019439407 -0.051664207 0.093203925 -0.026287422 -0.06022594 -0.045499988
-0.045285247 0.055045627 0.07000877 0.056685872 0.004632918 0.0046227374 -0.036911156 0.064680584
0.048901603 0.033741415 0.04231964 0.08623124 -0.06586698 -0.029497413 -0.026040604 -0.03771189
0.011147772 0.056622483 0.03982807 -0.02702953 -0.06734114 0.0030668091 0.057351455 0.060464308
-0.044758286 0.040757872 -0.057203434 -0.015759477 -0.06345912 -0.04209463 -0.04222993 -0.06481507
-0.03350423 0.055222824 -0.028700713 0.023261584 -0.063954316 0.023744667 0.048057586 0.027268104
0.04162569 -0.022695174 0.026857419 -0.02123484 0.064707376 -0.03715654 0.019254576 0.030773783
0.016552081 0.01805252 0.06427404 0.029190747 0.040287193 0.03739775 0.03864021 -0.022772726

final_layer.weight f4 [7, 128]
00000000: 8295 abb8 1567 8738 6227 2cb8 8cf7 2cbb
00000010: 02a0 5539 00b4 e0b7 c673 53b8 8560 32b8
00000020: 2e98 6138 cc98 96b8 53d1 0f38 e6ba 1b3b
00000030: 9153 aeb8 da88 8738 422b 3139 a9b0 a9b8
00000040: dd9c 2237 d7b0 3339 006b f638 b196 a238
00000050: 44c5 71bb 3573 92b7 6d45 e1b8 0f49 a335
00000060: 6dcc 32b8 1c25 f9b8 9243 13b9 5931 4c38
00000070: 3204 3938 eea4 5237 61d2 143b 366f a338
00000080: 8ff0 02b9 618d 55b8 0ea1 35bb 1dc1 52b7
00000090: 0c95 54b8 d438 47bb 3b4a 1438 f7f0 8c37
000000a0: 20ba 4eb8 9f84 1039 9078 f537 6298 66b8
000000b0: 07fb c738 6c94 cab7 6de4 10b8 0107 253b
000000c0: 2f78 b6b7 63e5 38b8 4f4b f5b7 a151 4037
000000d0: 03a0 50b8 f89d 75b8 23b8 0838 c297 9c38
000000e0: 42d5 60b8 c7fa eb36 0a53 ef37 b41d a33a
000000f0: c6d5 9838 9769 25b8 82f8 8638 d386 3db8
00000100: 6983 1637 d26c 12b7 e798 9db7 4df3 35b8
00000110: f409 8236 41ed 0f3b 4f6e ba38 c9e5 deb8
00000120: c8b9 2cb8 cc20 0fb8 b178 1fb9 998b 0abb
00000130: 35fa 5838 e553 1b39 c56c 5cb8 2927 e6b8
00000140: 3a71 a538 c68c 7838 fd3e edb7 3292 ce37
00000150: 5c97 7137 1cf4 0fb8 092b d6b9 835c 0db8
00000160: fe34 7e37 9e8a deb8 e53e f1b6 8c93 1fb8
00000170: 7e18 3038 d4f5 0db8 45c5 63b8 dedf bcba
00000180: 6520 49b8 4d71 e737 bfff 2138 f0d3 5db7
00000190: caba 223b 9e81 9a38 439c a537 5fec f337
000001a0: fcbd 7438 00e3 2bb8 71e1 4db7 3662 9dba
000001b0: 5ebb 6f3b 51e8 b2b7 a2bc a63a 07d9 9cb7
000001c0: 6049 a7b8 b245 ce38 3d36 8338 0ccd 0337
000001d0: 5314 beb8 14ef f538 5691 69b8 a0cc 02bb
000001e0: 7b84 0f38 8d40 01b9 284f 2d3a 308d da38
000001f0: 531c a238 0887 2838 096a b438 6e5e 4538
00000200: ea13 7c38 ca62 1438 3c85 d8b8 75b3 39bb
00000210: 1cf4 bdba 0f5b 1c38 5d51 3538 a70c 99b8
00000220: 3bb3 c538 32f4 a6b8 1a76 73b8 805c aa3a
00000230: 6066 06b8 56cd 03b8 ccca ddb6 fb4c 8038
00000240: a497 7cb8 48d4 3137 3b68 0639 73c7 2138
00000250: 05c1 00b9 128b 66b7 d4a5 35b8 a686 d538
00000260: 5c59 a7b7 606c 8438 d866 82b8 5768 9438
00000270: 03cc 04b7 f1ad 6538 10ca bcba ae8e acb8
00000280: 8b77 c5b6 a994 6f37 bb33 9aba c1ed 72b9
00000290: e5a5 9eb7 a928 0ebb 410b e538 d352 9938
000002a0: 3bc7 abb8 7a29 7e37 e8f4 c4b7 23c9 d237
000002b0: 8230 c8b7 b645 3b38 6940 3fb8 0790 00ba
000002c0: b754 a0b8 858a 1eb9 a367 8637 7775 b4b7
000002d0: e9e2 41b8 15fa 1539 96f6 d438 50b6 47b8
000002e0: f797 c637 64aa 20b9 6ca3 a6b7 0f60 df3a
000002f0: 1ee3 45b8 55ac 0fb9 2253 5739 5a7b 8cb8
00000300: 08fe 2038 f382 4336 c8e1 8f37 86e9 10b8
00000310: 9c18 d038 0874 f93a b6f1 3fb8 128e a237
00000320: 71af 3e38 347d 8c37 ea08 4a37 ab51 1dbb
00000330: 7cca b1b7 e80a b137 1946 c238 fee5 e2b8
00000340: 179c 94b8 7f36 5a37 14e9 b638 79bb 69b9
00000350: fe3e 40b8 2409 e137 f647 7c39 b51d 7638
00000360: f651 8737 a420 21b9 5fbc 3e37 3001 c938
00000370: bf45 1238 b2ae eab8 2d62 cdb8 8e33 8fbb
00000380: 521f 96b8 8554 d9b6 94a6 f038 6fdc c138
00000390: d7e5 c13a ab4b a4b8 baff b838 aa56 68b7
000003a0: 5e71 2936 bcd8 0db8 b5fa af38 fdbc 083b
000003b0: c685 a33a 6bcf 4fb9 4b0f 523b 351f 9637
000003c0: 89a7 fd38 efd6 e937 d37e efb8 0af3 bd38
000003d0: 8776 05b9 2e54 6b38 79f2 5fb9 a039 7dbb
000003e0: 00ba 9db8 79ca 1c37 48ab 9f39 f159 00b9
000003f0: 1c9e d1b8 fc4f 41b9 62c8 abb8 5910 5e38
-8.1817634e-05 6.456502e-05 -4.1044674e-05 -0.0026392667 0.0002037287 -2.67867e-05 -5.0414143e-05 -4.2528398e-05
5.378591e-05 -7.181018e-05 3.4288805e-05 0.0023762523 -8.312532e-05 6.462792e-05 0.0001689615 -8.0914535e-05
9.692475e-06 0.00017136648 0.000117501244 7.7528304e-05 -0.003689126 -1.7458204e-05 -0.000107417676 1.2165709e-06
-4.2628893e-05 -0.000118801574 -0.00014044184 4.868335e-05 4.4111344e-05 1.2555376e-05 0.0022708403 7.79316e-05
-0.00012487381 -5.0914827e-05 -0.0027714404 -1.2561938e-05 -5.068355e-05 -0.0030398862 3.5355082e-05 1.6801509e-05
-4.928757e-05 0.00013782315 2.9262417e-05 -5.497819e-05 9.535817e-05 -2.414939e-05 -3.4545013e-05 0.0025181177
-2.1752056e-05 -4.408265e-05 -2.9241344e-05 1.14630975e-05 -4.9740087e-05 -5.855967e-05 3.2596417e-05 7.466927e-05
-5.3604374e-05 7.03274e-06 2.8529688e-05 0.0012444765 7.287743e-05 -3.9437404e-05 6.435906e-05 -4.5186676e-05
8.971293e-06 -8.727615e-06 -1.878706e-05 -4.3380354e-05 3.8754606e-06 0.0021961483 8.889718e-05 -0.00010628586
-4.1181018e-05 -3.41244e-05 -0.00015208383 -0.0021140336 5.1731437e-05 0.00014813205 -5.2553387e-05 -0.00010974549
7.888903e-05 5.9258913e-05 -2.8281933e-05 2.4625191e-05 1.43999605e-05 -3.43212e-05 -0.00040849324 -3.3703178e-05
1.5151918e-05 -0.000106116044 -7.1896816e-06 -3.8045968e-05 4.198448e-05 -3.3845965e-05 -5.430474e-05 -0.0014409979
-4.7952304e-05 2.7590106e-05 3.8623573e-05 -1.3221972e-05 0.0024830573 7.367435e-05 1.9742298e-05 2.9077926e-05
5.835107e-05 -4.0980987e-05 -1.2271442e-05 -0.0012007419 0.0036580185 -2.1327434e-05 0.0012721012 -1.869771e-05
-7.976848e-05 9.835827e-05 6.2566694e-05 7.85595e-06 -9.063692e-05 0.00011727042 -5.5686884e-05 -0.0019958392
3.421724e-05 -0.00012326446 0.00066112215 0.00010421348 7.730038e-05 4.018008e-05 8.6028194e-05 4.7056405e-05
6.010003e-05 3.5377954e-05 -0.000103244995 -0.0028335724 -0.0014492306 3.7278103e-05 4.322954e-05 -7.297965e-05
9.427076e-05 -7.960982e-05 -5.8045705e-05 0.0012997538 -3.2043434e-05 -3.1424068e-05 -6.609922e-06 6.117854e-05
-6.022271e-05 1.0599448e-05 0.00012818065 3.8571143e-05 -0.00012278937 -1.3741448e-05 -4.3308202e-05 0.00010181712
-1.9949563e-05 6.314437e-05 -6.218039e-05 7.076625e-05 -7.915313e-06 5.475985e-05 -0.0014403481 -8.228175e-05
-5.884974e-06 1.4280123e-05 -0.0011764684 -0.00023167489 -1.8912318e-05 -0.0021691716 0.00010921667 7.311036e-05
-8.191025e-05 1.5149237e-05 -2.3479064e-05 2.5127612e-05 -2.3864446e-05 4.4649198e-05 -4.5597935e-05 -0.0004904274
-7.645174e-05 -0.00015119657 1.6022304e-05 -2.1512371e-05 -4.6226112e-05 0.0001430291 0.00010154878 -4.761509e-05
2.3674203e-05 -0.00015322265 -1.9864841e-05 0.0017042177 -4.717998e-05 -0.00013701741 0.00020534967 -6.698696e-05
3.8383558e-05 2.9133487e-06 1.7152066e-05 -3.454976e-05 9.922797e-05 0.0019031772 -4.576306e-05 1.9378062e-05
4.5462923e-05 1.6747603e-05 1.2042214e-05 -0.0024004977 -2.1194333e-05 2.1105123e-05 9.2636976e-05 -0.00010819359
-7.086264e-05 1.3006501e-05 8.7218505e-05 -0.0002229045 -4.5835033e-05 2.6826347e-05 0.000240594 5.8678637e-05
1.613142e-05 -0.00015366316 1.1368741e-05 9.584648e-05 3.487407e-05 -0.00011190529 -9.7934484e-05 -0.0043701595
-7.158391e-05 -6.4769433e-06 0.000114751194 9.244016e-05 0.0014793229 -7.834224e-05 8.8214365e-05 -1.3848456e-05
2.524895e-06 -3.381887e-05 8.391348e-05 0.00208646 0.0012475781 -0.00019818328 0.0032052572 1.7895925e-05
0.00012095186 2.787585e-05 -0.00011420031 9.057492e-05 -0.00012728023 5.6106765e-05 -0.00021357265 -0.0038639084
-7.5209886e-05 9.345466e-06 0.00030454458 -0.00012240537 -9.995347e-05 -0.00018435711 -8.1912396e-05 5.294415e-05

final_layer.bias f4 [7]
00000000: 8335 e83c 0601 b23c 15e3 38bd 1ed2 b3bc
00000010: dff8 18bc a7e2 a03d 629c 81bd
0.028345829 0.021729004 -0.045138437 -0.021950778 -0.009336679 0.078557305 -0.06328656

mapping_network.network.0.weight f4 [128, 144]
00000000: 3665 343e 5156 953d 9e6d fb3d 56c4 11bd
00000010: 0d58 6b3b edb8 bd3d e264 3dbe ffc5 9b3c
00000020: 103c ae3c cbf9 953e cbdb 813d fdd0 83bd
00000030: c7a9 1d3e 1930 c63d 2c4c 63bc 1492 9abd
00000040: ffa0 d13d 7a0f 9fbd 75bc 47be 3cf4 2a3d
00000050: ea9d a23d d259 00be 574e cdbd 0ada 84bc
00000060: c107 f6bd c8c8 513d df2c 603d 47e0 dc3d
00000070: 4fa9 5bbd c8bb 413d 919f 5d3d 2dd6 f8bd
00000080: 4e30 183e 08ac 043e 64ff d43b 8530 1cbe
00000090: 4e1f c13d 7ff0 16be 82f0 3d3e 215e 013e
000000a0: 9c18 85bc ca8d 513e 759f a33c a8db 03bc
000000b0: 66ec 7ebd cec9 263d 19e3 0cbd 844c 31bd
000000c0: 4f4a b9bb 1584 823e 024a 2e3d 6724 f5b9
000000d0: 25db 5e3c 4925 1bbd a91a 08be 9cc8 753e
000000e0: 1c54 5c3e 5217 68bd 6dac 4cbd b37b c4bd
000000f0: d32f f5bd c5b6 053d 68fb 04be c7a2 e03d
00000100: f148 c53c 7245 5dbd 917a 723d daf1 273e
00000110: fe0d 133e a482 70bd f094 38be 2926 d0bd
00000120: 08c0 34be 06d7 0f3e faf4 17be 4a60 41bc
00000130: da25 473e 61cb 523d b070 57bc d553 c4bc
00000140: 825e 3fbe cd90 f03b a894 e2bd 0bea d73d
00000150: 426b 6a3e eb6a 88bd a70f 62bd 75f3 c23d
00000160: 35be 283e d09c c73d e97d 50bd 380f b63b
00000170: e342 803d a696 d33d daa6 ee3d 9544 0e3d
00000180: 6d40 823e ec8a 9b3d d94c edbd 44bf 28be
00000190: 5a82 a63d 330b c23d fc54 1fbc 910c fe3d
000001a0: c24a aa3d 57a5 a03d e96b 493d bc88 943d
000001b0: 13a7 91bc ca58 ee3c 3464 3cbe bac2 0f3e
000001c0: 8594 8a3b 52be f7bc 66d8 113d 089b 4c3d
000001d0: 8efa 1dbe 87e9 023e 43a5 7d3d e952 97bd
000001e0: 758b f93c 0658 063d bdf7 1b3e 188f 4cbb
000001f0: e0e3 62be 2ae2 143d b5b0 a3ba eec0 693c
00000200: f4a2 3dbe ec0a 163c 90c3 d53c d30d 5fbe
00000210: 276d f93d cee1 b43d f189 98bd f2c5 28bd
00000220: 76a4 1cbd 5e29 9fbc 4b23 f73c 1924 b5bc
00000230: 04bb a53e 5078 76bd b4a6 c4bb 08a3 f63d
00000240: f98e 84be 724f 8bbd 2196 2f3e d984 bdbb
00000250: 644f 2dbe 8578 42be e45a 303e 37e3 973d
00000260: dce0 d13d e517 143e 8dae 91bc 0fb5 1ebe
00000270: 403d 843c 02dd c03d 42c6 a0bc f9d1 81bd
00000280: 2ada c03d 303c 9f3d 70c5 8bbd 5851 713d
00000290: e49f 1abd 39aa c8bc f272 0a3e eb1c 14be
000002a0: af25 2abd e27e 5a3d a73c 1fbe be81 1a3e
000002b0: 4254 2d3d b16b 5e3c efb5 2ebd ddf1 12be
000002c0: 9b66 e8bc 8d3f 38be 0a40 aebd bd5a c3bc
000002d0: b8dc 46bd 5832 0d3d 43db 8d3c 8629 e93d
000002e0: 42e8 a9bd 7871 21be 242e 0bbd a72c 4a3d
000002f0: 938d 45bd 5504 853e 50a8 663d c563 b63d
00000300: aec1 46bd 455c 5d3d de8c 45bd e11d 15be
00000310: 90d5 d73c e24a a53d 265d 90bd 86e2 083d
00000320: ed56 683e 59d3 5bbd 29bc e7bd 9b84 723d
00000330: ccf7 0a3c d63b a23d 1009 853b 2509 e8bd
00000340: bd4b d73d 3fb6 273e 1195 d83c 1c48 3f3e
00000350: 53cd 65bd c96f ce3d 19e1 4c3c a0de 3f3d
00000360: e349 04be 76f0 38bd 8ca2 ccbd 6a6b 25bd
00000370: f8f4 aebb 1619 19bd af82 60bd ddde 13bd
00000380: 744f 47bd 9385 d1bc 04d5 083c 60cb 83bd
00000390: 3edb e7bd 192e 1cbe 3be6 d33c cd80 0e3e
000003a0: 1476 a6bd d159 84be a8cb 023e 7552 81bd
000003b0: ad5a 333d cf5f 4e3d aea5 c1bd 4001 373e
000003c0: 9c4a 0b3e 1307 42bc 0deb d8bc 115f 0c3e
000003d0: 2173 4f3e beb0 8d3d 25b7 e93d 2057 93bc
000003e0: ed39 85be c94e 3e3e d911 f8bd 64da c3bd
000003f0: d359 4d3c bc0f aa3d 0bbe 5dbd 7df7 9ebd
0.17616734 0.07291854 0.12276767 -0.03558763 0.0035910637 0.092637874 -0.18495515 0.01901531
0.021268874 0.2929214 0.0634075 -0.06436346 0.15396796 0.09677143 -0.013873141 -0.075473934
0.10235786 -0.07766624 -0.19505484 0.041736826 0.07940276 -0.12534264 -0.10024708 -0.01621725
-0.12013198 0.05121687 0.054730292 0.10784965 -0.053628262 0.047298223 0.054107253 -0.12150226
0.14862177 0.1295625 0.0065001715 -0.15252884 0.09429799 -0.1474018 0.18548778 0.12633564
-0.016247086 0.20464244 0.019973496 -0.008047976 -0.062237166 0.0407198 -0.034396265 -0.04328586
-0.00565461 0.25491396 0.042551048 -0.00046757163 0.013602053 -0.037877355 -0.1329142 0.24002308
0.2151646 -0.056662865 -0.049969126 -0.09593906 -0.11972012 0.032645006 -0.12986529 0.10968547
0.024082633 -0.054021306 0.05919892 0.16400853 0.14360806 -0.05871834 -0.18025565 -0.101635285
-0.17651379 0.14046869 -0.14839545 -0.011802742 0.19448033 0.05146349 -0.013149425 -0.023965755
-0.18688396 0.0073414803 -0.1106351 0.10542687 0.22892478 -0.06661018 -0.05519071 0.09519092
0.16478808 0.097467065 -0.050901327 0.0055560134 0.06262758 0.10331468 0.11652918 0.034733374
0.25439778 0.075948566 -0.11586923 -0.16479212 0.08130331 0.09474792 -0.009724852 0.124047406
0.0831504 0.07844036 0.049175177 0.072526425 -0.017779863 0.029095072 -0.183976 0.14039126
0.0042291307 -0.030242119 0.035606764 0.049952537 -0.1542761 0.12784396 0.061925184 -0.07388861
0.030462006 0.03279879 0.15231223 -0.003121322 -0.2215724 0.0363485 -0.0012488576 0.014267189
-0.18519193 0.009157877 0.026094228 -0.21782617 0.12179022 0.08832131 -0.07448185 -0.0412044
-0.03824278 -0.019428905 0.030168196 -0.02211194 0.32369244 -0.060173333 -0.006001318 0.120428145
-0.2589033 -0.06802262 0.17147113 -0.005783659 -0.16924816 -0.18991287 0.17222172 0.07416385
0.10247967 0.1446224 -0.017783428 -0.15498756 0.016142488 0.09417154 -0.019625787 -0.06338877
0.094166115 0.07775152 -0.068247676 0.058915466 -0.03775014 -0.024495231 0.1352041 -0.14464156
-0.041539844 0.05334366 -0.15550481 0.15088555 0.042316683 0.01357548 -0.042653974 -0.14350076
-0.028369239 -0.17992993 -0.08508308 -0.023846978 -0.048550338 0.03447184 0.017316466 0.11384873
-0.08296253 -0.15765941 -0.03397955 0.04935899 -0.04823072 0.25979868 0.05631286 0.08905748
-0.04852455 0.054043073 -0.048230045 -0.14562179 0.026346952 0.080709234 -0.07049017 0.033419155
0.2268941 -0.053668354 -0.113151856 0.059208494 0.008481931 0.07921569 0.004059918 -0.11329869
0.10512493 0.16378115 0.026438268 0.18679851 -0.056104016 0.10079915 0.012504839 0.04684317
-0.1291881 -0.045151196 -0.09991941 -0.04038564 -0.005339261 -0.03737744 -0.05481213 -0.03610121
-0.048659757 -0.025576388 0.008351568 -0.06435275 -0.11321114 -0.1525196 0.025866618 0.13916321
-0.0812799 -0.25849774 0.12773001 -0.063145556 0.043787647 0.05038434 -0.09455429 0.1787157
0.1360268 -0.011842507 -0.026479268 0.1370814 0.20258762 0.069184765 0.11411885 -0.01798588
-0.26020756 0.18584742 -0.12112779 -0.09563139 0.012533623 0.08303782 -0.054136317 -0.077620484

mapping_network.network.0.bias f4 [128]
00000000: a68b c0bb 6e4b 9abc 187a c53d 1a84 d03d
00000010: 5005 2f3e 151b afbd 9bc3 eb3d ed9c dfbc
00000020: 5854 0e3e 85ad 303e e15d 983c 367b 073d
00000030: c680 0c3e 4d6f 983d 75f3 56bc b015 453e
00000040: e91e 303e 051d d13d 864e 18be 6196 da3d
00000050: 0beb 85bd 65fc e9bc ae7c f7bd 87e5 133e
00000060: 3b43 5e3c 0a19 253e 31b0 343e 673e b3ba
00000070: b449 463e c032 533e 1104 b93d ae38 c0bd
00000080: ded5 693e d233 16bd f9f3 533e f0a4 a93d
00000090: a4f2 8c3d 3ff0 f43d a12d 303d c02d e0bd
000000a0: c294 aa3d 9ac9 f9bd d29a 133c 24d6 923b
000000b0: 9f21 eb3d 83b8 e43d f256 103d b405 ec3d
000000c0: e7c6 593d 53ba 50bd f02c ad3c a064 af3d
000000d0: 5f81 70bd 5fa7 9d3d e778 85bd e64b f13b
000000e0: 4cb5 613e 3830 483e 2f30 8a3d fd61 98bd
000000f0: 9170 14bc 22fc f63b 7d23 9e3d 1d1b c33d
00000100: 7a6e 153e a25b d4bd 26c1 a03d 0095 d53d
00000110: 2174 ffbd f9d9 553b 351e 3d3c fdaf 0e3e
00000120: 5f5a 2c3e 6713 ae3d 1588 143e 93fa ac3d
00000130: c15e f03d 0ce3 dc3d 76fd 993d be79 e03d
00000140: 4fec 56be e71d 1b3e 12e8 8d3d 37d2 583d
00000150: 51aa c23c 6998 2f3e d73b 9e3d 2d6f e93d
00000160: 40b3 fb3d 3bb2 a93d ee58 373e b6af 27bd
00000170: 40a8 3f3d 4242 763e 6af0 06be 13b9 943c
00000180: 23fa ce3d 9b96 e53c 7fae f23a 86c7 0b3e
00000190: a6b4 183d b2a1 be3c f569 e43d 5f46 073e
000001a0: 85e0 32bd 41f1 4b3d c3da aa3d 42e4 9f3d
000001b0: 3a07 893c 1391 14bd c81f 4f3d ed40 e73d
000001c0: 83ee f53d 8d5b 2b3e 3a06 be3d 8df4 703d
000001d0: 6f34 fc3c b87d a73c 1fbc 8f3d 6cb9 16bd
000001e0: 5164 403d 3fd7 4f3e 7a1e b13b 2bf5 2c3e
000001f0: f310 76be 70af ae3d 6337 523d 687e c9bc
-0.0058760224 -0.018834796 0.09642428 0.101814464 0.1709187 -0.08550087 0.11511918 -0.027296508
0.13899362 0.17253692 0.018599452 0.033076487 0.13720998 0.07443104 -0.013119568 0.19246554
0.17199291 0.10210613 -0.14873704 0.10673214 -0.065389715 -0.028562734 -0.12084328 0.14443026
0.013565834 0.16122833 0.17645337 -0.0013675214 0.19364053 0.20624828 0.09033979 -0.09385811
0.2283549 -0.036670513 0.20698537 0.082834125 0.068822175 0.11959886 0.043012265 -0.10946226
0.083291546 -0.121966556 0.00900908 0.004481094 0.11481022 0.11168005 0.035239168 0.11524525
0.053168204 -0.050958943 0.021139592 0.085641146 -0.058717128 0.07697939 -0.06517201 0.007363784
0.22041816 0.19549644 0.067474715 -0.07440565 -0.009060041 0.007537381 0.077216126 0.09526656
0.14592925 -0.1036904 0.0784934 0.1042881 -0.12473322 0.0032631143 0.011542846 0.13934322
0.16831349 0.084997945 0.14505036 0.08446231 0.11736823 0.10785493 0.07519047 0.109607205
-0.20988582 0.15148126 0.069290295 0.05293485 0.023762854 0.17147984 0.07726257 0.11398158
0.122900486 0.08285948 0.17905018 -0.040939055 0.046791315 0.24048713 -0.13177648 0.018154657
0.101063035 0.028025916 0.0018515139 0.13650331 0.037281655 0.023270462 0.11153022 0.13210438
-0.04367115 0.049790625 0.08342507 0.078072086 0.016727079 -0.036271166 0.05056742 0.112916805
0.12008383 0.16734143 0.092785314 0.05882697 0.030786721 0.02044569 0.07018303 -0.036797926
0.04697067 0.20296954 0.0054052444 0.16890399 -0.24029903 0.08529556 0.051322352 -0.024596408
